Initialized word embeddings
Obtained embeddings
_________________________________________________________________
Layer (type)                 Output Shape              Param #   
=================================================================
merge_1 (Merge)              (None, 10, 600)           0         
_________________________________________________________________
lstm_2 (LSTM)                (None, 1000)              6404000   
_________________________________________________________________
dense_3 (Dense)              (None, 100)               100100    
_________________________________________________________________
dense_4 (Dense)              (None, 50)                5050      
_________________________________________________________________
dense_5 (Dense)              (None, 1)                 51        
=================================================================
Total params: 13,184,569
Trainable params: 13,184,569
Non-trainable params: 0
_________________________________________________________________
None
Built Model
Training now...
Epoch 1/20
14105/14105 [==============================] - 1441s 102ms/step - loss: 0.2184 - acc: 0.9310 - val_loss: 0.1882 - val_acc: 0.9419
Epoch 2/20
…
