__________________________________________________________________________________________________
Layer (type)                    Output Shape         Param #     Connected to
==================================================================================================
input_2 (InputLayer)            (None, 4096)         0
__________________________________________________________________________________________________
dense_1 (Dense)                 (None, 300)          1229100     input_2[0][0]
__________________________________________________________________________________________________
input_1 (InputLayer)            (None, 10)           0
__________________________________________________________________________________________________
reshape_1 (Reshape)             (None, 1, 300)       0           dense_1[0][0]
__________________________________________________________________________________________________
embedding_1 (Embedding)         (None, 10, 300)      4798800     input_1[0][0]
__________________________________________________________________________________________________
concatenate_1 (Concatenate)     (None, 11, 300)      0           reshape_1[0][0]
                                                                 embedding_1[0][0]
__________________________________________________________________________________________________
lstm_1 (LSTM)                   (None, 512)          1665024     concatenate_1[0][0]
__________________________________________________________________________________________________
dense_2 (Dense)                 (None, 100)          51300       lstm_1[0][0]
__________________________________________________________________________________________________
dense_3 (Dense)                 (None, 50)           5050        dense_2[0][0]
__________________________________________________________________________________________________
dense_4 (Dense)                 (None, 1)            51          dense_3[0][0]
==================================================================================================
Total params: 7,749,325
Trainable params: 7,749,325
Non-trainable params: 0
__________________________________________________________________________________________________
None
Built Model
Training now...
Epoch 1/10
14105/14105 [==============================] - 674s 48ms/step - loss: 0.2102 - acc: 0.9360 - val_loss: 0.1718 - val_acc: 0.9490
…
