__________________________________________________________________________________________________
Layer (type)                    Output Shape         Param #     Connected to
==================================================================================================
input_1 (InputLayer)            (None, 10)           0
__________________________________________________________________________________________________
input_2 (InputLayer)            (None, 4096)         0
__________________________________________________________________________________________________
embedding_1 (Embedding)         (None, 10, 300)      4798800     input_1[0][0]
__________________________________________________________________________________________________
dense_2 (Dense)                 (None, 300)          1229100     input_2[0][0]
__________________________________________________________________________________________________
lstm_1 (LSTM)                   (None, 10, 512)      1665024     embedding_1[0][0]
__________________________________________________________________________________________________
reshape_1 (Reshape)             (None, 1, 300)       0           dense_2[0][0]
__________________________________________________________________________________________________
time_distributed_1 (TimeDistrib (None, 10, 300)      153900      lstm_1[0][0]
__________________________________________________________________________________________________
concatenate_1 (Concatenate)     (None, 11, 300)      0           reshape_1[0][0]
                                                                 time_distributed_1[0][0]
__________________________________________________________________________________________________
lstm_2 (LSTM)                   (None, 512)          1665024     concatenate_1[0][0]
__________________________________________________________________________________________________
dense_3 (Dense)                 (None, 100)          51300       lstm_2[0][0]
__________________________________________________________________________________________________
dense_4 (Dense)                 (None, 50)           5050        dense_3[0][0]
__________________________________________________________________________________________________
dense_5 (Dense)                 (None, 1)            51          dense_4[0][0]
==================================================================================================
Total params: 9,568,249
Trainable params: 9,568,249
Non-trainable params: 0
__________________________________________________________________________________________________
None
Built Model
Training now...
Epoch 1/8
14105/14105 [==============================] - 1116s 79ms/step - loss: 0.2114 - acc: 0.9353 - val_loss: 0.1726 - val_acc: 0.9489
…
